Week4/net_4000.pth (torch, 93151 bytes, 6 tensors)

conv.0.weight f4 [16, 4, 8, 8]
00000000: e5b7 d83d c86b 423d 8abe 163e b945 033e
00000010: afdd 663e a6ad c43c 4186 cebc ce33 673e
00000020: e36f ea3d da99 efbb 91a8 48bd 6102 303c
00000030: e9fd b23d f76e b1bd 7afd 123c d22f 5c3e
00000040: f6b0 cb3d 2364 b73d 1d58 edbc dec3 18bd
00000050: 67c9 0bbe a8c3 f23d 1171 073e 1da3 943d
00000060: 8b55 f1be dbc7 5bbd d7d3 d5be 3b34 2fbf
00000070: 8e1f 39bf 82b8 04be 27d7 e6be 3f37 34bf
00000080: 2ee9 88be 1935 57be f337 37bf 86b1 39bf
00000090: c35b 8fbf 71cf 05bf db83 cabc 8050 85be
000000a0: b1f4 5cbe 59a5 0fbd 64bf 1abf af9f 80be
000000b0: e6c6 01bf 76f3 95be fd22 eb3c f8c4 92be
000000c0: bb73 5cbd ff5a 373e cd9d 6f3e 324c afbe
000000d0: f2e5 1abf 49e6 c8be 4e06 073e 3147 25be
000000e0: 69e1 f03b 2a2b 9e3d d341 793c d2c6 b43a
000000f0: d3f4 063e 644a 5abe af1b 493e 0939 203e
00000100: 21f6 c4bd f56a 0dbe ebeb b0bd c103 a5bd
00000110: 21e8 3abe ce9b 74be 90e3 41be 8829 f8bd
00000120: f94f fdbd 0d10 56be 331e fbbd 5b5b 60be
00000130: 6c01 8cbd 1dcd 6c3c bbf5 03be 31df 70be
00000140: 7e66 05be b008 18be ba5b 13be c538 7ebe
00000150: 6637 43bd 751d 54bb f835 67bd c893 9cbe
00000160: b1e5 67be 6f58 70bd 5761 0ebf ff7b 58be
00000170: c473 8dbd c9d5 5bbd e89f d3be 7ac1 75be
00000180: d2e3 573e 6be5 473e 8bf0 1ebf 7101 48be
00000190: 901b 6cbe 20af 08be c562 043e 16bb 4c3d
000001a0: 0c35 de3d 6588 353e 9f0d 87be a644 dfbe
000001b0: 4671 1e3e 86ed 3abe 7dd9 793e 8181 0d3e
000001c0: 5bc2 76bd bd6d 06be 1af4 a83e b3b9 cdbd
000001d0: 0c2e 623e c0b0 acbe 04a3 0d3c 3899 e6bd
000001e0: 1442 a33d 717d 333e be90 bc3c 5588 81be
000001f0: a201 213e 3b2b ffbe de42 35be cc67 70bd
00000200: 590e f339 8003 173e 5716 383e bd32 7ebd
00000210: 1dda ec3d a5aa c6bb b136 a9bd 24ac e5bb
00000220: 4969 06bd 59ef 5a3c fdd4 febc 1c95 08be
00000230: 9b6b 7bbd fa5c 6b3d d25f bcbd 45bb aebc
00000240: 9da1 c4bd 84e9 0ebe 205f e4bd 6e5f 9fbc
00000250: 887c 13bd 4161 443e 3825 05bd 9fa6 823c
00000260: dfdf ddbc f85d d63c a57f 94bd 5f2b 8bbd
00000270: a3f7 873e 618a 9bbd 7016 e2bd 3b5b 47be
00000280: 6392 413e f480 563e 6d0b 3e3e fbf2 b13e
00000290: 18f7 2b3e be82 f63c eeb5 893e 2920 993d
000002a0: cd87 c53d caa8 193e 9ae9 023e 0ebb a0bd
000002b0: 0419 7f3e 278a 883d 6d25 993d 52b8 263e
000002c0: 20cd 27be d04e 7e3d abdc 903e 8170 92be
000002d0: 77d8 be3d 5c0a 33be a509 423c 2159 ff3d
000002e0: 557a 4cbe 70c4 3e3d 171b e6bd 7884 b3bd
000002f0: 8016 45be 78c8 edbe dd09 84be e73f 0cbe
00000300: 4ab6 973e e3ed 2e3e cb77 7a3e 9d9e 153f
00000310: cf40 283e 27df 0b3e 0f60 5e3d 1b99 443e
00000320: d051 563d ce6d 3fbd 8353 493e efcc ed3d
00000330: a806 b7bc c8c7 0abd 7c80 213d ca5e 613e
00000340: 58f9 8c3d 4d5c 7d3d 016b a73e 8f06 cbbd
00000350: edda e03d 8b48 593e b969 703e 4855 783e
00000360: e51f f0bd 1fd2 36be 7d1f d539 35a4 2d3d
00000370: ee7c 833d 86a2 5ebe 4b97 0cbf 8f32 f3be
00000380: ef81 8e3e a5fe a03e a0d2 b53d 63f0 8d3e
00000390: 31a1 00be a0d8 403d 53e1 3e3e a6ed 193e
000003a0: aa74 543e 7886 4a3e 38c4 10be 8906 c33d
000003b0: dec5 7cbd c7f7 3abe 0072 d3bd c47c ae3c
000003c0: 4f98 0abe e0b0 19bd 8478 343c 76fe 70be
000003d0: 2bc2 a7bd 136b 403c 813b 023e 969d 1dbd
000003e0: ea17 6bbe 094a a23a 4c47 acbe 2d82 d8be
000003f0: b262 863d f7ed 9e3b 03ae 5fbb f99c f4bd
0.1058195 0.04746607 0.14721122 0.12819566 0.22545503 0.024008583 -0.025210502 0.22578356
0.11447122 -0.0073120417 -0.048988882 0.010742755 0.08739836 -0.08663743 0.008971566 0.21502617
0.09945862 0.089546464 -0.02897268 -0.03729617 -0.13651048 0.11853725 0.13226725 0.07257674
-0.47135577 -0.053657394 -0.41763183 -0.6843907 -0.72313774 -0.12961009 -0.45086023 -0.703968
-0.26740402 -0.21016349 -0.71569747 -0.72536504 -1.1199878 -0.52269655 -0.024721077 -0.2603798
-0.21577717 -0.035069797 -0.6044829 -0.2512183 -0.5069412 -0.29287308 0.028703207 -0.286659
-0.053821307 0.17905806 0.2340004 -0.3423782 -0.6050712 -0.39238194 0.13185999 -0.16140439
0.0073510897 0.07723077 0.015213448 0.0013792163 0.1317933 -0.2131744 0.19639467 0.15646757
-0.09617258 -0.13810332 -0.08638748 -0.080573566 -0.18252613 -0.2388756 -0.18934464 -0.121172965
-0.12368769 -0.2090456 -0.122616194 -0.2190985 -0.06836209 0.0144532 -0.12886707 -0.23522641
-0.13027379 -0.14847064 -0.1439046 -0.24826343 -0.047660254 -0.003236619 -0.056447953 -0.30581498
-0.22646214 -0.058678087 -0.5561728 -0.21141051 -0.06906846 -0.05367068 -0.41332936 -0.23999587
0.21083 0.1952111 -0.6208579 -0.195318 -0.2305739 -0.13348055 0.12928303 0.049983107
0.10849962 0.17727812 -0.2637758 -0.43607062 0.15472898 -0.1825467 0.24399371 0.13818933
-0.060243946 -0.131278 0.32998735 -0.10045185 0.22087878 -0.337286 0.008644823 -0.11259693
0.07971588 0.17528321 0.023018237 -0.25299326 0.15723279 -0.4983767 -0.17701289 -0.05869274
0.00046359262 0.14747429 0.17977272 -0.062060107 0.11565039 -0.006062823 -0.08262385 -0.007009046
-0.03281525 0.013362729 -0.03110742 -0.1333813 -0.061381917 0.057461716 -0.09197964 -0.021329531
-0.09601138 -0.13956267 -0.11150956 -0.019454684 -0.036007434 0.19177724 -0.032506198 0.015948592
-0.02708429 0.026167855 -0.07250909 -0.06795382 0.2655612 -0.07594753 -0.11039436 -0.19468395
0.18903498 0.20947629 0.18559046 0.34755692 0.16793478 0.03009164 0.26896614 0.07476837
0.096450426 0.15005794 0.12784424 -0.07848178 0.24911886 0.066669755 0.074778415 0.1628125
-0.16386843 0.06208688 0.28293356 -0.2860146 0.09318631 -0.1748442 0.01184312 0.12468172
-0.19968541 0.046574056 -0.11235636 -0.08765501 -0.19246864 -0.46442008 -0.25788775 -0.13696252
0.29631263 0.17082934 0.2445976 0.5844515 0.16430973 0.13659345 0.054290827 0.1919903
0.052324116 -0.046735577 0.19660763 0.116113536 -0.022342041 -0.033881932 0.039429173 0.22008815
0.06883496 0.061855603 0.32698825 -0.0991336 0.10979257 0.21219079 0.2347783 0.24251282
-0.117248334 -0.17853592 0.00040649986 0.04239293 0.06420313 -0.21741685 -0.54918355 -0.4749951
0.27833506 0.31444278 0.08878064 0.27722463 -0.1256149 0.04708159 0.18640642 0.15032062
0.20747629 0.19777858 -0.14137352 0.09522731 -0.06171214 -0.18258582 -0.10324478 0.021299727
-0.13534664 -0.037522197 0.011015061 -0.23534569 -0.081913315 0.0117442785 0.12718011 -0.038480364
-0.22958341 0.0012381683 -0.33648145 -0.42286816 0.065617934 0.004850145 -0.0034130819 -0.11944003

conv.0.bias f4 [16]
00000000: 3efc c2bd 6079 b4bc eefa 91bb 4651 8abd
00000010: 9535 f73d ff60 9abc d817 6ebc e9ea 97bb
00000020: 16b4 ecbc 1ff9 41bd b537 06bd 2eb5 e53d
00000030: a308 8dbd 5486 5d3d 9e67 b23b a16d 48bd
-0.09520768 -0.022030532 -0.004454962 -0.06753783 0.12070767 -0.01884508 -0.014532052 -0.004636158
-0.028894465 -0.04735672 -0.03276797 0.11216198 -0.06886413 0.054083183 0.005444481 -0.048932675

conv.2.weight f4 [32, 16, 4, 4]
00000000: 9a2f a93c 8d53 7f3c 7498 a83c c4a7 103b
00000010: 5994 a1bd abd3 05bc 9213 9cbc 85f4 8c3c
00000020: 921b 6dbd cad3 62bd 33f5 9dbb 3903 6cbc
00000030: 79f5 9dbb 5ba5 2e3d fa4b bb3c 673d 9ebc
00000040: c11c 5b3c 950f 253d 816a 3bbd 6df8 cb3a
00000050: ecfc 29bd 06cf 14bd c4cb 32bd d5f0 4b3d
00000060: cb88 013d e2c0 913c 3bfa 13bd 261c 62ba
00000070: fe29 ab3c dbfd c73c 74e7 54bc f3a3 1cbc
00000080: 1da5 733c e9b6 383c ec79 37bd fe9f 523d
00000090: b228 ed3c 62d6 c6bc 4915 12bd 65f3 2c3d
000000a0: e103 32bb 0543 44bd e8c4 7ebd 5cc9 a6bc
000000b0: bbfd 43bd b87b 67bc 4915 b9bc 6142 373d
000000c0: 0924 9dbb cf63 57bd 3986 31bd a967 9bbc
000000d0: 205e 27bd 6db9 043d 92e2 0cbd df6b 203c
000000e0: 7a78 64bd 88e7 9ebd dd6d 5dbd 94a2 853c
000000f0: f202 77bd eca8 3abd ba64 8ebd d666 e73b
00000100: 1fef 0b3d 40e8 4bbd efc6 3ebd 07be e23b
00000110: b2dc 263d 15f6 89bd a2af 2ebd 8385 923c
00000120: 24bf 93bc 7df1 ec3c 89f5 2ebd 38c3 ba3c
00000130: 32f8 88bd de30 b63b a842 90bb 421e 96bc
00000140: d157 383c a1a8 80bd baed 2c3c d675 463d
00000150: 9c72 763c a60b 62bb 5c9c 33bd 08f4 2fbc
00000160: 740f 85bd 7ee9 8ebd 4232 86bd 03fa 15bc
00000170: 17e1 36bd c392 32bc eab5 463d 991f b9bc
00000180: 75b6 f2bc baa1 71bc b211 2c3c 7424 f2bc
00000190: 864a 21bd 1ea3 343c 93b0 ddbc dde5 21bd
000001a0: d223 ebbc ccf1 9abd c4ab 293d 532e 3cbd
000001b0: ee94 3dbd 667e 24bd e4cf 9bbc 190a a8bc
000001c0: eec3 9f3c 180b 67bd 1f81 8ebd 0040 36bd
000001d0: f284 983c dd90 0a3c 35d3 47bd f967 003d
000001e0: 66b1 4cbd de91 513c c191 96bb eba9 51bd
000001f0: 3d30 e03c 1d10 a6bb 2ce4 1d3d 15ac 2ebd
00000200: d5a3 523d 4306 3ebd 0d19 ebbc 17ba 003d
00000210: e02b c6bc 61f4 dcbc 2f42 a63b 5163 e4bc
00000220: 21da b9bb 8657 16bd 1251 ab3c 07ca 003d
00000230: 6a81 3cbd a894 82bd 85cc 923c c73e 6fbc
00000240: 8aff 16bd 3ff9 aa3a 200f 463c ea1c 74bd
00000250: d1e0 2c3d 7618 5cbd 501f 54bc a522 3abd
00000260: 9ea2 c13c e5c7 d2bc ec6a 38bc 178e 18bc
00000270: a702 93bd 3ec6 71bd b87d 14bc fd2f 863c
00000280: 6b26 34bd a409 5ebd 8aff f33a c124 413d
00000290: 2967 303c f56d 1abd 5b0a 073d 96de 753c
000002a0: 6878 5ebc d6a1 c33c 8f08 843c 3e8a 26bd
000002b0: 6390 22bc e3c9 c7bb 3678 89bc 4fed 05bc
000002c0: 809c d43c f950 f33c 5562 d0bb 7202 ce3c
000002d0: 42a4 5fbc 2d53 c0bc b64e 853c cd78 283c
000002e0: f250 efbc 0fe2 0cbd 1bcd d53c 4096 4fbd
000002f0: 4468 c23c 5f1b a5bd a571 c43c e3d2 c23c
00000300: a8df 5dbc 3ce0 4a3c b212 7c3c 13dd 1d3c
00000310: 9211 aa3c 473d 1fbd e597 f5b8 3d96 95bc
00000320: 416a dbbc 34c3 97bb 7dab 2ebd bf47 8fbd
00000330: d318 a6bd bae2 83bd 562c 9a3b a50a d43c
00000340: fc70 6fbc 50b0 903c b3c7 a23c ae07 4bbd
00000350: c6a2 89bc 54b0 e63c b2e2 a3bd f22e 59bc
00000360: 107f b7bc 0763 21bb 48dd 37bd 3f93 d73b
00000370: 4b8e 12b9 5056 493c 2dbc 3b3d 7fe2 80bd
00000380: 8ec8 52bd 2a6f 813b 3b8c 40bd 986c 7fbd
00000390: 0f00 80bd 8673 ebbc 4f55 1abd ce2e 95bd
000003a0: afab 6fbd 36a4 5abc 10de 63bd b69f 15b9
000003b0: f50a 8bbd f3bd 793c b833 abbd 51af 51bc
000003c0: 3260 a9b9 00ff 233d 850c 3e3d 019b b43c
000003d0: ba68 42bd 3698 5d3c d2e0 8cbb d84b 13bd
000003e0: c83d e6bb 0cd3 3c3d 4c06 1d3d 4b8c 54bd
000003f0: 0537 423c c1c9 fbbc 3d21 31bd 9fca 6c36
0.020652581 0.015583885 0.020580508 0.0022072652 -0.07889623 -0.008168141 -0.0190523 0.01720644
-0.05788762 -0.05537776 -0.00482049 -0.014405065 -0.0048205224 0.042638164 0.022863377 -0.019316388
0.013373555 0.040298063 -0.045755867 0.0015561708 -0.04150097 -0.036330245 -0.043651357 0.049790222
0.031624597 0.017792169 -0.03612731 -0.000862541 0.020894047 0.02441304 -0.012994636 -0.009560573
0.014870909 0.011274078 -0.044794008 0.05142211 0.02895007 -0.024272148 -0.03566483 0.042224307
-0.0027162957 -0.047915477 -0.062199503 -0.020359688 -0.047849398 -0.014128618 -0.022593157 0.04474104
-0.0047955555 -0.05258542 -0.043340895 -0.018970327 -0.04086125 0.0324034 -0.03439576 0.0097913435
-0.055778958 -0.07759005 -0.054059852 0.016312875 -0.060305543 -0.045571253 -0.06952806 0.0070618195
0.03416359 -0.049782038 -0.046576437 0.0069196257 0.040737815 -0.067363895 -0.042647965 0.017885929
-0.018035479 0.028923744 -0.04271463 0.022798166 -0.066879645 0.0055600246 -0.0044024773 -0.018324975
0.011251406 -0.062821634 0.010554725 0.04845222 0.015041973 -0.0034491806 -0.043850288 -0.010739334
-0.06497088 -0.06978129 -0.06552555 -0.009153846 -0.044648256 -0.0108992485 0.04851333 -0.022598075
-0.029628018 -0.014748031 0.010502266 -0.029558398 -0.03937771 0.011025218 -0.027061736 -0.039525855
-0.028703604 -0.0756565 0.041423574 -0.045942616 -0.04628461 -0.040159605 -0.019020028 -0.020512627
0.019502606 -0.056407064 -0.06958222 -0.04449463 0.01861808 0.00845739 -0.048785407 0.031349156
-0.049973868 0.012791125 -0.004595012 -0.051187437 0.027366752 -0.005067839 0.03854768 -0.04264458
0.051425774 -0.04639269 -0.028698469 0.03142747 -0.024190843 -0.026971998 0.0050738077 -0.027879389
-0.005671755 -0.036704563 0.02091268 0.03144267 -0.046021856 -0.0637601 0.017919788 -0.01460237
-0.036864795 0.0013044252 0.012088567 -0.059597887 0.04220659 -0.053734265 -0.012946919 -0.045443196
0.023637112 -0.025730083 -0.011255961 -0.009311221 -0.0717824 -0.05902695 -0.009063177 0.016380304
-0.04398195 -0.054208413 0.0018615585 0.047154192 0.010766783 -0.03770252 0.03296886 0.015006682
-0.013578512 0.02388088 0.016117362 -0.04065918 -0.00992212 -0.006097065 -0.016780954 -0.008174255
0.025953531 0.029701697 -0.0063593783 0.02514765 -0.013650002 -0.023477161 0.016272884 0.010282707
-0.029213402 -0.034395274 0.026098778 -0.0506804 0.023731358 -0.08061861 0.023979971 0.0237822
-0.013542093 0.012382563 0.015385317 0.009635228 0.020760331 -0.038876798 -0.00011710803 -0.018260116
-0.026784064 -0.0046314243 -0.042644013 -0.06996106 -0.081102036 -0.06439729 0.0047049923 0.025883982
-0.01461434 0.017662197 0.019870615 -0.04956787 -0.01680125 0.028160252 -0.08002223 -0.013255822
-0.022399455 -0.0024625675 -0.044888765 0.0065788324 -0.00013976653 0.012288645 0.045833755 -0.06293201
-0.051460795 0.0039500194 -0.047008734 -0.062359422 -0.06250011 -0.02874161 -0.037679013 -0.07284318
-0.05851334 -0.013344815 -0.055631697 -0.00014269244 -0.06789199 0.015243041 -0.08359474 -0.012798146
-0.00032305863 0.04003811 0.04639866 0.022046568 -0.047463156 0.013525059 -0.0042992616 -0.035961002
-0.007026408 0.046099707 0.038336083 -0.051891606 0.011853938 -0.030735852 -0.04324459 3.5284681e-06

conv.2.bias f4 [32]
00000000: c2b0 63bd ad5d 91bd 565e 463e c70e 423c
00000010: 85f6 ed3d 22e9 9bbd 2092 f53b e64b 5dbd
00000020: 30b9 5ebe 69c2 e53d fb0e 4d3e 6c0b 84bc
00000030: 00d3 e0bc 5ccc 77bd 6e36 013e 0ba8 67bd
00000040: 4c03 4dbd f8ab 4d3d fc40 1d3d 98e2 833e
00000050: 7cf3 943d e93b 2abe 0af7 8dbd a4a7 663d
00000060: bc1d e8bd 0016 ddbc c2a5 cbbd b935 ffbc
00000070: 5988 bbbd 7fa3 45bd 2fe0 3fbd 93e2 4c3d
-0.05558849 -0.07097945 0.19371924 0.0118443435 0.116192855 -0.07612826 0.007494226 -0.05402746
-0.21750331 0.112187214 0.20025246 -0.016118728 -0.027444363 -0.060497627 0.1261842 -0.056556743
-0.050051972 0.05021283 0.038392052 0.25758815 0.072730035 -0.16624416 -0.069318846 0.05631222
-0.113337964 -0.02698803 -0.09943725 -0.031153547 -0.091568656 -0.048251625 -0.046844658 0.050020766

fc.0.weight f4 [4, 2592]
00000000: 9582 ffbb 3593 5dba ce05 193c f73b e13b
00000010: 2e30 06bc 0a57 2e3c 0ff7 4dbc 54ea 22ba
00000020: d84f 81bb a05f aaba 1ab8 f2bb 0b32 28ba
00000030: 70ba a3bb 5764 e83b 9685 283c 8d16 7f39
00000040: 33f0 f03b a180 4dbc d436 e7bb 5614 7cbb
00000050: ceb6 883c 55c0 59bc 49f0 943b 58dd 883c
00000060: 51f3 07bc 9a30 fbbb 90c0 b03b f89b 2a3c
00000070: 2f3b adb8 95bf afbb a65b 98b8 1c14 81ba
00000080: f3bd 253b ae69 83bc 7beb f4bb 1253 6fbc
00000090: 22a1 b9bc aae6 d93b dbd6 60bb 842d 503b
000000a0: eb65 a7bc 7d67 9c3b 367a 06bc 87c9 10bc
000000b0: 2fa3 fbb8 eec8 2b3a a40c a43a 8f56 60bc
000000c0: f0b4 97bc dc67 2bbc 9cb8 1f3c f42e 41bb
000000d0: 71f3 cc3b 2e9e 263b 796b 423c 0b15 183c
000000e0: 0f76 40bc 6a4f d03b 169d 4d3c 46cd 8a3b
000000f0: 6007 34ba 4d4e 593c 1999 2dbc 05b3 863a
00000100: 612b aabb fe69 6c3b 9dd9 113c ba82 64bc
00000110: 41fd 4bb9 cf34 e03b de04 9dbb 752a 663b
00000120: 823f d8bc bc82 42bc 514a 36bc 194a 14bc
00000130: d565 f3ba 95a8 a8bc 5a79 45bb 0101 803c
00000140: b324 26bc d414 34bb 9bad a7bb 4646 bfbb
00000150: 15f0 0b3c 1685 88bc 3fbc fd39 68cc 3d3b
00000160: 7bcb 02bc 93f2 0abc 8c39 90bc 0626 84bb
00000170: feaa 14bc 7a9f 94bc 2259 4dbc 03af 8f3a
00000180: 4c46 ffb8 685d ad3b 83ea fdbb b4ac 0ebb
00000190: b115 2abc 0fa2 563c fbf0 9bbc d5e4 653c
000001a0: 5d52 5c3c e470 4b3c 5fb5 3d3c 65fe 9fbc
000001b0: 5fa3 dd3a 397f 5ebb dfd3 bbbb 31f8 b9bb
000001c0: 9bd4 c23b 99d1 c3bb 9e97 2d3b 437e aeba
000001d0: 40fc 903c 2fab 0dbc e09e a03c 1ae9 553b
000001e0: bbef 933c 9312 15bc bf84 00bc fdaa 1cbc
000001f0: 12b9 733c a9fc 1b3c 47c9 6a3c f956 d43b
00000200: 17e7 babb 16a3 b3ba 0a53 15bc 1513 14bc
00000210: 400f 9a3c 63c8 2fbc bc58 283c 1ee2 c7bb
00000220: da83 aebb f52e 483c cea5 6abc c15a 0e3b
00000230: f0ab 5f39 a3aa 0f3c e66a 933c 81a2 4f3c
00000240: 5075 143a a878 443c 3fe9 473c 86d2 07bb
00000250: f709 203b 9ea6 e4ba c80a bdba 96e9 603c
00000260: 03f8 4b3a a34c c33a 6a56 bebb 50e6 26bb
00000270: 3d76 b6bb f5ad 80bc 96b3 873b a58c 1c3c
00000280: 14a0 ebbb 6f27 0dbc f060 873b 86d5 a4bc
00000290: 4eff ae3b 89a0 ff3a 214d d23b 8ebf 0abc
000002a0: 9931 e83b d689 2d3c 827a 7dbc c67a 73bc
000002b0: 93ee 56bb 5acb 04bb 830e 9fbb c56e 463b
000002c0: cabe 98bc 1eb7 54bb f678 dbbb 59f6 04bd
000002d0: 8c1a c0bd e521 ffbd 23c7 d8bd 0d99 d2bd
000002e0: df90 85bd 31af 7e3b 2144 c5bc 8b9e 51bd
000002f0: 9a78 bc3c c5c1 1d3e bbdc d5bc 0274 a3bd
00000300: b128 42be f76f 0c3d bad9 3c3d c88d dd3d
00000310: 5bde 283e 0f94 e9bd 420a 233d 892c 943d
00000320: 9dbc 13bd 1188 9dbd 7a9c db3d 02d5 95bb
00000330: eaf0 ddbb f9b4 03bd 0f2d fc3d 804f 42bd
00000340: fe1b 883d 7111 82bc 3aae 14bd c6aa 5cbe
00000350: 212d 203d 9fd1 9c3d 439a 75bc 4936 063e
00000360: d722 903c 1c77 903d 548a bf3c 3a91 f5bd
00000370: 6d4c c83d 5092 60bc f39d b5bd 1ef5 043a
00000380: 1946 b63c 2846 d03d 7000 bfbd 3125 94bb
00000390: 662f a13d b35e 24be 6e12 4ebd 1efe 9c3d
000003a0: f841 1bbe e23c 8abd 689d 5c3d 7a3d 80bd
000003b0: 35e2 1cbc 539e eebc 678c 01be b995 8ebd
000003c0: 57e1 593d 2dc5 7cbd 0c70 58bd 282b f93c
000003d0: ae1c 813c a61b a2bc 9407 5fbc b2ce 7bbc
000003e0: 654b 0f3c 0d1c cb3a 7948 90bc fd58 16b9
000003f0: d8a0 f5bb cb8b 9ebc efd9 9abc 60b5 0fbd
-0.007797549 -0.00084524165 0.009339763 0.0068736034 -0.008190198 0.010640869 -0.01257111 -0.0006214727
-0.0039462857 -0.0012998469 -0.0074072005 -0.00064161484 -0.0049965903 0.0070920396 0.010285756 0.00024327096
0.0073528527 -0.012542875 -0.0070560966 -0.003846427 0.01668873 -0.013290484 0.004545246 0.016707107
-0.008297757 -0.007665706 0.005394049 0.010413162 -8.260307e-05 -0.0053634145 -7.264996e-05 -0.0009847912
0.002529022 -0.016041603 -0.0074743605 -0.014607208 -0.022659842 0.0066498118 -0.0034307751 0.003176541
-0.02043434 0.004773079 -0.008207848 -0.00883711 -0.00011999008 0.0006553073 0.0012515974 -0.013692512
-0.018518895 -0.010461774 0.009748604 -0.002947745 0.0062546064 0.0025423872 0.011866444 0.009282361
-0.011746897 0.006357123 0.012549659 0.0042358963 -0.0006867554 0.013263297 -0.010595583 0.0010276741
-0.0051931594 0.0036073918 0.008901981 -0.013947183 -0.00019453933 0.006842233 -0.00479184 0.0035120521
-0.02639747 -0.01187199 -0.011126117 -0.009050869 -0.0018569777 -0.020588199 -0.0030132146 0.015625479
-0.010140586 -0.0027478235 -0.005117131 -0.0058372347 0.008541127 -0.016665023 0.00048396175 0.0028960947
-0.007983084 -0.008480686 -0.017605565 -0.004032853 -0.009073971 -0.01814245 -0.012533458 0.0010962192
-0.00012172441 0.005290676 -0.0077489032 -0.002177042 -0.010381148 0.013100161 -0.019035807 0.014031609
0.013447371 0.012417052 0.011578887 -0.019530484 0.001690965 -0.0033950342 -0.005732044 -0.0056753387
0.0059457547 -0.0059759137 0.0026488076 -0.0013312775 0.017698407 -0.00864677 0.019607008 0.003264016
0.018058648 -0.009098667 -0.007844149 -0.009562251 0.014875667 0.009520688 0.014330215 0.0064800945
-0.0057038176 -0.001370522 -0.009114036 -0.009037753 0.0188061 -0.010728928 0.010275062 -0.0060999533
-0.0053257765 0.012218227 -0.0143217575 0.0021721574 0.00021330989 0.00876871 0.01799531 0.012673021
0.0005663233 0.011991657 0.012201606 -0.0020724847 0.0024420002 -0.0017444675 -0.0014422769 0.013727566
0.0007780792 0.0014900159 -0.005808641 -0.0025466867 -0.0055682943 -0.01570795 0.0041412814 0.009555017
-0.0071907137 -0.008615359 0.004131429 -0.020121347 0.0053404933 0.0019502799 0.006417886 -0.008468522
0.0070859906 0.010591945 -0.015471103 -0.014860814 -0.003279601 -0.0020262809 -0.004854025 0.0030278426
-0.018645663 -0.003245778 -0.0066977693 -0.032461498 -0.093800634 -0.12457637 -0.10584857 -0.10283098
-0.065217726 0.0038861746 -0.024080338 -0.05117659 0.023006726 0.15405948 -0.026106229 -0.07981111
-0.18960835 0.034286465 0.046106078 0.10818058 0.16491072 -0.11405193 0.039804704 0.07235057
-0.036068548 -0.07691968 0.10723205 -0.0045725117 -0.006773104 -0.03215501 0.12313282 -0.0474391
0.06645964 -0.015877457 -0.036298968 -0.2154952 0.03910554 0.076571696 -0.014990392 0.13106646
0.017594738 0.07053968 0.02338139 -0.119905904 0.09780202 -0.013706759 -0.08868017 0.00050719257
0.022250222 0.10169631 -0.09326255 -0.004521035 0.07870369 -0.1605175 -0.050310545 0.076656565
-0.15161884 -0.06749894 0.05386105 -0.06261726 -0.009575416 -0.02912823 -0.12651215 -0.06962151
0.053193416 -0.06171148 -0.05284123 0.030416086 0.015760746 -0.019788574 -0.013612647 -0.015369104
0.008746003 0.0015496031 -0.017612683 -0.00014338265 -0.0074959807 -0.019353768 -0.018902747 -0.035085082

fc.0.bias f4 [4]
00000000: 91ab d73d 51d6 da3d f7f2 d73d b524 d93d
0.105307706 0.10685409 0.10544389 0.106027044
